carbon_pre_best_model.pt (torch, 181500 bytes, 16 tensors)

weight_ih_l0 f4 [128, 8]
000000 2f 40 19 be 7e cb 31 3e 0f 56 8d bd 45 0c 6e bc
       -0.1496589 0.17362782 -0.0690118 -0.0145292925
000010 96 9f 3d 3d 0d 17 a7 3d 56 0c 9b bd 59 6c 35 be
       0.04629477 0.081586935 -0.07570712 -0.17717113
000020 f0 bb 0c be ab fe bb bd 89 89 34 be 70 ef 87 3d
       -0.13743567 -0.091794334 -0.1763059 0.06637466
000030 58 65 4b 3d 13 44 83 3d fd a5 89 bd 14 d1 35 3e
       0.049657196 0.064094685 -0.06721113 0.17755538
000040 51 04 2d 3e f7 ab 62 3d 49 df 66 bd 46 d3 a1 bd
       0.16896178 0.05533978 -0.056365285 -0.07901625
000050 0d 65 c3 bd af c1 ea 3d 09 bb f0 3c 66 c0 2a 3e
       -0.09540758 0.114627235 0.02938606 0.16674957
000060 b4 4d 0b 3b a1 94 ba 3d 75 2b 96 3d bf fe 47 bc
       0.0021256031 0.0911038 0.073325075 -0.012206732
000070 2d e8 8c bd 5d eb 6a 3d 29 e4 c0 3a b9 68 fe bd
       -0.068802215 0.057353366 0.0014716435 -0.12422318
000080 e7 7a 85 3d c1 15 27 3d 63 a6 ad be 53 4f 00 be
       0.065175824 0.04079223 -0.33916005 -0.1253026
000090 56 d0 37 3e 5a a1 85 3d 1b 18 0d be fe 55 fa 3d
       0.17950568 0.06524916 -0.13778727 0.12223433
0000a0 75 c1 c5 bd 37 b0 2e be 6d a6 e6 3d 2e 14 03 3d
       -0.096560396 -0.17059408 0.11262212 0.032001667
0000b0 19 01 7d bd 67 7f 1a 3d a0 02 3a be 98 a7 2a bc
       -0.061768625 0.037719157 -0.18165064 -0.010415934
0000c0 bf 6c 0d 3e d9 b1 9f 3d 5e 73 11 bd ac 62 a6 3d
       0.13811015 0.077975936 -0.035510413 0.08124289
0000d0 20 ba 5f bc 62 a1 91 bd 1f 91 ab 3d f5 e5 a4 3c
       -0.0136552155 -0.071108595 0.08377289 0.020129183
0000e0 c5 e6 87 3d 8e f8 b8 bb dc 44 35 3e 38 57 09 3e
       0.06635813 -0.0056448644 0.17702049 0.13412178
0000f0 dd 38 eb bc 91 5b 43 3d d5 1d f6 3c e6 06 0e 3e
       -0.028713638 0.047694746 0.030043522 0.13869819
000100 db f3 58 3e c0 52 c0 3c 84 07 8c 3d a8 82 a2 bc
       0.21186773 0.023476958 0.06837371 -0.019837692
000110 cb ac b9 bc f4 bc 87 bd ba 33 0a 3e 7d d8 a8 3d
       -0.022665402 -0.06627837 0.13496295 0.08244417
000120 99 61 39 bd 34 3b 58 bc 2f d6 8e bc 14 4e 0f be
       -0.045259092 -0.013197709 -0.017436115 -0.13994628
000130 0d b9 4e 3e 6b 19 03 bc 07 25 11 3d 1f ea 80 bc
       0.20187779 -0.008001666 0.035435703 -0.015736638
000140 a7 01 1d be 26 ed 30 3e ca 8a fc bc cf 2a 23 be
       -0.15332662 0.17277965 -0.030827899 -0.15934299
000150 53 ff 3d 3e 43 78 b1 bd c1 ac 83 bd c3 b4 00 3e
       0.1855443 -0.08665516 -0.064294346 0.12568955
000160 24 dc 38 3d fd 44 c5 bd 77 f1 e5 bc f8 05 ee bd
       0.045131817 -0.09632299 -0.028069241 -0.11622232
000170 c8 ab a3 3d 9e 3c 23 be b5 1a d5 bd 55 5f 8c bd
       0.07991749 -0.15941092 -0.104054846 -0.06854121
000180 2d 90 80 bd 3e ea 1b 3e ce c8 b7 3b e5 5e 03 3d
       -0.06277499 0.15226075 0.0056086546 0.03207292
000190 9a bf 8c 3b 9e 95 b8 bd 3e de 4c bc e5 a1 d1 3c
       0.0042953016 -0.09012912 -0.012504159 0.025589893
0001a0 6b ef 4f be 5d bc 31 3e 20 94 c3 bd 16 85 be 3d
       -0.20306174 0.17357011 -0.09549737 0.09302728
0001b0 6c c2 12 3e f4 20 9f 3d a6 a6 f8 bd e2 d9 30 bc
       0.14331979 0.07769957 -0.12141161 -0.010794135
0001c0 63 e1 9c 3d 9c 04 5f 3d 64 2c 37 3e ea 94 04 3e
       0.076601766 0.054447755 0.17888027 0.12947431
0001d0 81 6d 76 3d 1b 69 39 3e ca f5 b7 bc 3c 7e 98 bd
       0.060163025 0.18106501 -0.022456069 -0.07445952
0001e0 f9 35 ac bd 00 7c 26 3e f4 a8 53 3d 80 25 9e bc
       -0.08408732 0.1625824 0.051674798 -0.01930499
0001f0 fb f9 96 bd 9b d7 b3 bd 17 b3 9d 3c 5d 2a 3d 3d
       -0.07371899 -0.08781358 0.019250436 0.04618298
000200 f2 73 37 be 39 a6 ce 3d 5f 32 3c 3d f2 4f 1c bd
       -0.17915323 0.10090298 0.045946475 -0.03816218
000210 24 8a 33 be 91 7b e2 3c a0 c6 41 bd d1 43 08 3e
       -0.17533165 0.027646812 -0.047308564 0.1330712
000220 ec a5 54 3e 05 d8 51 bd 14 48 e8 bd e8 a6 53 3e
       0.20766419 -0.051231403 -0.11341873 0.20669138
000230 59 e6 5d 3d 45 76 0a 3e 88 d8 f0 bd 79 4a f6 bc
       0.054174755 0.13521679 -0.1176005 -0.030064808
000240 70 8d 98 bc c1 c3 5a bb 96 9e b7 bd 6a ee 96 3c
       -0.01862213 -0.0033380839 -0.08965795 0.018424232
000250 18 d0 0f 3e 08 da 1e be de 23 21 be e7 2f 05 bd
       0.14044225 -0.1551286 -0.15736338 -0.032516386
000260 9f f0 62 bd e2 8f 77 3b 38 19 17 be 85 49 38 be
       -0.055405255 0.003777497 -0.14755714 -0.17996795
000270 b5 23 db 3c 08 9d ff bc 85 15 84 3d f6 9e a4 3d
       0.026750425 -0.031202808 0.06449417 0.08038132
000280 89 78 c8 bd 53 0e bc 3d 05 70 d4 3c a4 ef c6 bc
       -0.09788615 0.0918242 0.025932321 -0.024284191
000290 5f ee bd bd cf c1 54 bd c7 42 19 3e 7a 2a fe bd
       -0.09273981 -0.051942643 0.1496688 -0.124104455
0002a0 ff a6 80 bd bc 0a 09 bd df e4 25 3e 74 c1 38 3d
       -0.06281852 -0.033457503 0.16200589 0.045106366
0002b0 32 15 f0 bd 52 a4 33 3e 0e f3 1b be cb f3 3b be
       -0.11722793 0.17543152 -0.15229437 -0.18354718
0002c0 8d 62 35 be c6 6b dd 3d 98 de 9d bc 91 6e 47 bd
       -0.17713375 0.10811572 -0.01927118 -0.04868943
0002d0 a9 39 bb bd bc 73 00 be e1 b8 39 3e 32 0a a5 bc
       -0.09141857 -0.12544149 0.18136932 -0.020146463
0002e0 4a 40 4e 3d cf 32 a2 3d 81 12 1b be ce 93 a4 bd
       0.05035428 0.07919847 -0.15143777 -0.08036004
0002f0 aa d3 5c 3e 62 d5 df bd 75 72 21 3e 2f 44 04 be
       0.21565118 -0.109293714 0.15766318 -0.12916635
000300 eb 5d 1a be 69 7f 6e bd ac 53 28 be 6e 41 7e bd
       -0.1507489 -0.058226977 -0.16438168 -0.062074117
000310 f4 db b2 bd 08 48 2b bd f4 6f cc bc 37 7b b7 bd
       -0.08733359 -0.04181674 -0.024955727 -0.08959048
000320 2d 95 de bd 96 e0 80 bc a4 60 d0 3c 75 dd a5 bc
       -0.10868297 -0.01573209 0.025436707 -0.0202472
000330 2a 08 6e bd fd ad 48 3e e7 18 f3 bd 0c 9b ea 3d
       -0.058113255 0.19597621 -0.11869984 0.11455354
000340 ac fc 42 3e 24 4f 95 bd 60 0b 11 be ee 6c 61 3d
       0.19041699 -0.072904855 -0.14164495 0.055035524
000350 4a 1a e7 bd 5e 41 bd 3d 3f b8 59 3d 21 57 14 be
       -0.11284311 0.092409834 0.053154226 -0.14486362
000360 d1 0e 52 3e eb d4 40 3d 7a 39 94 bc 69 6b 83 bd
       0.20513465 0.047078054 -0.018093813 -0.06416971
000370 c8 c9 1e 3e 69 ba a7 bd 54 80 c2 bd d6 52 ac 3d
       0.15506661 -0.08189852 -0.09497133 0.08414237
000380 70 ea fd 3b 4f da a9 bb eb 72 9a bd 16 a3 e6 bc
       0.0077488944 -0.005183495 -0.0754145 -0.028153937
000390 8c fd fd bd 04 2c 94 3c 88 99 3e bc 92 d5 60 be
       -0.12401876 0.018087395 -0.011633284 -0.2195647
0003a0 1b 98 9a 3d f6 f4 ed bb 59 68 d3 3d d8 0b e2 bd
       0.07548543 -0.0072618676 0.10322637 -0.11037415
0003b0 38 22 08 3e 9b c0 24 be 6b 30 a1 bd da 91 23 be
       0.13294303 -0.16089098 -0.07870563 -0.15973607
0003c0 66 60 b3 bd 57 49 3d 3d a9 b0 82 3c 4b 7d b8 3c
       -0.08758621 0.04621252 0.015953379 0.022520682
0003d0 b7 b6 dc 3d 1b 10 06 3e 98 f2 46 bd 86 82 d4 bd
       0.107770376 0.13092081 -0.0485712 -0.10376458
0003e0 08 6d fa bd 25 e5 32 bd 5c ba 05 3e 6c 0b 1f be
       -0.12227827 -0.04367556 0.13059372 -0.15531701
0003f0 80 11 0c be 2f ef e4 3d 47 9a 9a 3d 31 1a dd 3d
       -0.1367855 0.11178433 0.07548957 0.10796011

weight_hh_l0 f4 [128, 32]
000000 2b 6b 42 3d c4 85 f3 bd 25 9b 91 3b 14 25 90 bd
       0.047465485 -0.11890748 0.0044435435 -0.07038322
000010 c5 e4 e1 3d 81 81 10 3e 81 4d 14 3e 89 09 03 3e
       0.110299625 0.14111902 0.1448269 0.12796606
000020 72 ef 14 be 5f 70 a7 bd a6 ca db bd e6 c1 ea 3c
       -0.14544466 -0.0817573 -0.107320115 0.028656911
000030 ca e3 f9 bc a4 7f 89 bd af ba 14 3e 9a 0c 5e 3d
       -0.030504126 -0.06713799 0.14524339 0.054211237
000040 61 2f cb bd d0 5f 31 bd 85 3c 3d bd f1 38 97 3d
       -0.09921146 -0.043304265 -0.046200294 0.073839076
000050 4e b3 4d 3d 89 97 0e 3e 6c 35 3a 3c 71 58 f6 bc
       0.050219826 0.13924994 0.011365276 -0.030071469
000060 a8 c8 d9 3d e2 82 51 3d b2 5b 12 be 22 49 88 bd
       0.10633975 0.05115021 -0.14292791 -0.06654574
000070 1f 6a 2a 3e 6a e0 34 be d3 ac 8a 3d 16 62 81 3d
       0.16642044 -0.17663732 0.06771245 0.063175365
000080 57 76 3a bd c1 ec 7a bd d4 67 2f be e3 ed 3a be
       -0.045523014 -0.061260942 -0.17129451 -0.18254809
000090 47 c8 ca bc 0b 0b 42 bd 2e 09 a7 bd ac 29 82 3c
       -0.024753703 -0.047373813 -0.08156048 0.015889011
0000a0 1a d8 41 be 0d d1 61 bd 4c 16 51 bd 85 8c 0b 3c
       -0.18930092 -0.055131007 -0.051046655 0.008517389
0000b0 ad d1 03 3e 87 bf fd 3c 9b b2 1d be be 87 5a 3e
       0.12872954 0.030975116 -0.15400164 0.21340844
0000c0 6f 54 ea bd 13 d3 1f be 48 e0 00 3e 01 dd 44 be
       -0.11441886 -0.15607862 0.12585557 -0.19224931
0000d0 28 b2 a8 bd a9 a7 8e 3b 50 90 9b bd 21 8d 76 bc
       -0.082371056 0.0043534827 -0.07595885 -0.015048296
0000e0 08 ce b9 3d db bb 07 3e 87 56 54 3e 50 de c7 bd
       0.090725005 0.13255255 0.20736133 -0.097591996
0000f0 ab 8c 13 3e af dd 96 bd b7 14 25 be 1f 0e b8 bc
       0.1440913 -0.073665015 -0.16121183 -0.022467671
000100 16 ab 46 bd 04 5b 9a bd 60 f3 35 bd b3 e7 9d 3d
       -0.048503004 -0.07536891 -0.044421554 0.07710209
000110 8b 78 2c 3e c8 01 f4 3d 2d 42 0e be be 71 26 3d
       0.16842858 0.11914402 -0.13892432 0.040635817
000120 3a 66 f0 bd 83 a2 c0 3d 16 84 1f be 8a 5b e2 3d
       -0.11738248 0.09405997 -0.1557773 0.11052616
000130 cf d8 9c bc c2 d9 79 bd b3 a0 30 be b6 13 1c be
       -0.019146351 -0.060998686 -0.17248802 -0.15241894
000140 de c5 1c be a1 f8 28 3d 3d 51 84 bd 28 ba de 3b
       -0.15309855 0.041252736 -0.064608075 0.006797094
000150 63 cc f0 bd ef 65 43 3d 5b d4 8b bd 5d 31 94 bc
       -0.11757734 0.047704633 -0.06827613 -0.018089944
000160 02 ce ff bd dc aa f0 3c ae 9e 13 3e 8f 88 a0 bd
       -0.12490465 0.029378347 0.14416 -0.078385465
000170 9d be 71 bc 5e 2d f3 3d d1 77 15 bc f4 99 cf bd
       -0.014754918 0.118738875 -0.009122805 -0.10136786
000180 85 a8 f1 b9 c6 6b 26 bd 4c 95 e7 3d 1d c9 f9 3d
       -0.0004609266 -0.040630125 0.11307773 0.121965624
000190 7b 3c 8d 3e 8a 42 9c 3c 22 f4 b1 3c 51 f3 c5 3d
       0.27585205 0.019074697 0.021722857 0.096655495
0001a0 95 b1 4d be 49 d7 21 3d f8 4a c6 3d 8b 6f bc bd
       -0.20087273 0.039511953 0.09682268 -0.09200963
0001b0 e9 d2 82 3d 14 98 cd 3c 66 18 d9 bc 30 9d b6 bc
       0.06387884 0.02509693 -0.026500892 -0.02229175
0001c0 42 6e 1d 3d ee 8f 22 3d d2 ac 0b 3e 81 12 3c be
       0.03843523 0.039688043 0.13640144 -0.18366434
0001d0 33 fc d2 bd 5d cd 21 be 06 ff 41 3d a3 31 a6 3c
       -0.103020094 -0.15800996 0.04736235 0.02028734
0001e0 da 20 57 3e f8 13 1d 3c c9 6f 4d 3e cc 74 a8 3d
       0.21008626 0.00958728 0.20062174 0.08225402
0001f0 83 35 a3 3c 29 53 2b 3d 99 89 81 be 4f ff df bd
       0.019922977 0.041827355 -0.2530029 -0.10937368
000200 df e3 cd bc 51 89 e1 bd f2 71 f5 3d 2d 75 0e be
       -0.025133071 -0.11012519 0.11984624 -0.13911887
000210 21 0f 37 3e 38 57 87 3e 1f 6b 18 3e 00 6e a6 3d
       0.17876865 0.2643373 0.14884613 0.081264496
000220 36 b3 a5 3d e2 70 0c 3e 4f 6c 98 3d b1 27 19 3e
       0.080908224 0.13714936 0.07442533 0.14956547
000230 fd d6 e8 3d da 3f ab bd da d9 60 ba a1 36 20 3e
       0.11369131 -0.08361788 -0.0008577384 0.1564584
000240 81 8f de bc 7d 2e 43 be 5a 52 ae bb 18 0e 5a be
       -0.027168037 -0.19060703 -0.0053198757 -0.21294439
000250 44 6e 9d 3d a6 e0 ec 3d 15 52 8f 3d a5 cd c7 3c
       0.07687047 0.11566286 0.06998078 0.024390051
000260 0b c9 39 3a 14 69 ff bd ec 71 91 3d e5 c5 46 3c
       0.00070871477 -0.12471214 0.07101807 0.012132143
000270 53 10 d6 3d 6d 6e a6 bd a3 9f 17 be d4 86 d1 bc
       0.10452332 -0.08126531 -0.1480699 -0.025576986
000280 84 00 25 be 27 02 4d 3c 27 80 d8 bc 99 bc 1b 3c
       -0.16113478 0.01251272 -0.026428295 0.009505414
000290 ac 56 bf 3a 56 43 7e 3e 26 36 2d 3e 79 a0 28 3e
       0.0014597974 0.24830374 0.16915187 0.16467465
0002a0 0d 2a 1c be 8e bc ce 3d 12 45 39 bd 5b 09 21 be
       -0.15250416 0.10094558 -0.045231886 -0.15726225
0002b0 97 ed 07 3e a7 75 5f 3e 4d 22 3b bd dc 7e 89 3d
       0.13274227 0.21822225 -0.04568701 0.0671365
0002c0 c9 95 bc 3d 59 87 cb bd 64 78 40 be 4c 8b c4 3d
       0.09208257 -0.09937925 -0.18795925 0.09596881
0002d0 0a 80 d2 3d 82 b4 8e bd 5a d1 ff 3d c4 38 9c 3e
       0.10278328 -0.06968023 0.124911025 0.3051206
0002e0 c3 fe 14 3d 2f cf 91 bd 19 b1 c7 bd b6 1c 9d 3d
       0.036375772 -0.07119595 -0.097505756 0.07671492
0002f0 37 f0 3e 3e fc f2 44 3d 3e 4d 3a 3c 24 c6 02 bd
       0.18646322 0.04808329 0.011370955 -0.031927243
000300 bd 6e de bd 99 52 09 be c5 40 1a 3c 6a 08 8a 3d
       -0.108609654 -0.13410415 0.009414856 0.06739886
000310 cb 1b 04 be e0 a7 2a 3e ab 72 17 3e be 98 7d bc
       -0.12901227 0.16665602 0.14789836 -0.015478311
000320 d5 0a 28 be 21 91 a0 3d 90 b3 94 bd bd f7 32 3d
       -0.16410382 0.07840181 -0.07260811 0.043693293
000330 b9 6e 48 3e e3 ff 60 3e 41 27 2e bd 70 81 98 bc
       0.19573487 0.21972613 -0.042517904 -0.018616408
000340 cb 6f 9b 3c 28 74 f6 bd 9a 7e 9a bd 3b 71 3a 3e
       0.018974205 -0.12033874 -0.075436786 0.18207256
000350 cd 36 41 be b5 cd ed 3d d1 a9 26 be dc 8e 8e 3d
       -0.18868561 0.11611501 -0.16275717 0.06960842
000360 e6 69 15 3e e0 43 a9 3d 45 e3 cd 3d 9d 36 86 3d
       0.14591178 0.08264899 0.10053114 0.065533854
000370 50 ef c4 bc 31 c1 ad 3c 1b 39 07 be 4b 05 90 3d
       -0.024039894 0.021210285 -0.13205378 0.070322596
000380 c4 6c 4e bd 6e dc b2 bb eb 34 e8 bd e1 6a 99 bd
       -0.050396696 -0.005458406 -0.11338218 -0.07491089
000390 1e 38 02 3d 9b 62 94 bd 07 3a 29 3e ef f1 13 3d
       0.0317918 -0.0724537 0.16526042 0.036119398
0003a0 15 ae dc bd 8c e3 87 bc aa 3a b4 3d a6 09 f4 3d
       -0.10775391 -0.016587995 0.08800252 0.11915903
0003b0 42 d9 28 3e 7b ca 40 3e 42 01 bf bd 41 a4 45 3e
       0.16489127 0.1882724 -0.09326412 0.19300939
0003c0 0e 59 f8 bd 13 b7 8d be e4 3c 71 3d 7a 4e 63 3c
       -0.12126361 -0.27678737 0.05889596 0.013873691
0003d0 b9 4e 0f be 0a 8b 2c be 09 09 25 be 22 2b e1 3c
       -0.13994874 -0.16849914 -0.16116728 0.027486388
0003e0 14 0c fd 3d f9 0e 4d bd 2d e9 2f 3e 03 18 ea bd
       0.12355819 -0.050063107 0.17178793 -0.11430361
0003f0 d7 0f 0b 3e 2a 58 cf bd 5b 1e d0 bd 4f 48 11 3d
       0.13580261 -0.10124238 -0.1016204 0.03546935

bias_ih_l0 f4 [128]
000000 00 e4 5f 3d 2c 6d 27 3d b7 50 9f 3d 33 6c 67 3e
       0.054660797 0.0408756 0.07779067 0.22599868
000010 bd 5f 3c 3e fd 17 fa 3d 10 47 3e 3e 4c 50 53 3e
       0.18395896 0.12211607 0.18581796 0.206361
000020 3e 23 a9 3d 22 94 4d 3e 73 88 43 3e f3 80 04 3e
       0.08258675 0.2007604 0.1909502 0.12939815
000030 7a 43 59 3d ca 4a 97 bc a7 31 62 3e 76 24 39 3e
       0.053042866 -0.01846828 0.22089253 0.18080315
000040 dd 7c 52 3b 79 e4 f6 3b 4c 9a c7 bd 45 c8 bb bd
       0.0032117881 0.0075345603 -0.09746227 -0.09169058
000050 46 89 3a 3e d0 96 3b 3e a0 b3 37 3e 38 95 f6 3d
       0.18216428 0.18319249 0.17939615 0.1204018
000060 60 65 79 3e 2d f5 22 3e 3b 42 eb 3d 95 24 4b 3c
       0.24355078 0.1591384 0.11487242 0.012398859
000070 55 32 15 3e 43 0c 56 3e 0d 83 f3 3d ef 2f ec bc
       0.14569981 0.20903115 0.1189023 -0.02883145
000080 6e f9 1f 3e 5b f0 05 bd b3 6b 7a 3d 41 80 6c 3e
       0.15622494 -0.032699924 0.061137866 0.230958
000090 4e 32 dc bd 64 0c 57 3e ed 85 0a be 02 77 90 3d
       -0.10751782 0.2100082 -0.13527651 0.07053949
0000a0 c7 e1 21 3c 0e 32 3c bd 1c 3d 3c bd c3 e5 f7 bc
       0.00988049 -0.045946173 -0.045956716 -0.030260926
0000b0 bd 99 01 3e a3 52 1a 3d ca 16 9d bc 67 93 61 bc
       0.12656303 0.037676465 -0.019175906 -0.013768054
0000c0 c4 60 86 3d 3b 8b 52 3c 07 b4 71 bc bf 37 75 bc
       0.06561425 0.012850578 -0.0147523945 -0.014966904
0000d0 1b a5 18 bd 65 1a 9d 3c c2 5d c9 bd c2 70 c1 bd
       -0.03726683 0.019177625 -0.09832336 -0.09445335
0000e0 77 14 c3 bc 76 49 c4 bd ac 8c 5e 3e 7c 28 f0 bd
       -0.02381347 -0.09584324 0.2173335 -0.11726472
0000f0 11 56 9f bd bc 23 6c 3e a4 fa 9c 3d 0c c8 9d 3d
       -0.07780088 0.23060507 0.076649934 0.077041715
000100 1a 15 a0 bc 40 a6 86 bd 1e a3 ba 3d 3c 1f 1f 3d
       -0.019541312 -0.065746784 0.091131434 0.038848147
000110 04 c2 4b 3e b3 1b 21 3e 12 f8 fa 3d ea b6 d6 3d
       0.1989823 0.15733223 0.12254347 0.10484107
000120 a0 20 a7 bd 68 57 99 3c b8 7c 10 bd e8 90 9f bc
       -0.081605196 0.018718436 -0.03527519 -0.019478276
000130 2d 26 68 3d 67 2e 23 3e 52 bf ee bb 54 a4 e1 3d
       0.056677032 0.1593567 -0.0072859908 0.11017671
000140 e9 8e 00 3e 92 ad 1b be 62 92 14 3d 75 ac 24 bd
       0.12554516 -0.1520293 0.036272414 -0.04020353
000150 59 96 d4 3d 0b 77 3f 3e 8e 31 14 be 5f 17 64 3e
       0.10380239 0.18697755 -0.14472029 0.2227454
000160 2b 22 24 bc 06 eb 1d bd 83 bb cb 3d 5d f3 c8 3d
       -0.010017912 -0.038554214 0.099478744 0.09812043
000170 c5 ee dc 3d 02 29 c6 3c 67 6e 1f be 3b 3a a5 bb
       0.10787729 0.024189476 -0.15569459 -0.005042342
000180 6d 56 6f 3e b2 8e 24 3d 90 69 76 3e 95 fa c3 3d
       0.23372813 0.040175147 0.24063706 0.09569279
000190 84 f8 5e 3d e7 c7 f8 bc c3 5b 2c 3e 21 05 1d 3e
       0.05443622 -0.030368758 0.1683188 0.15333988
0001a0 ec 4b 8b 3d d9 61 20 3e 13 2d 91 3d 75 01 56 3e
       0.0680159 0.15662326 0.07088675 0.20898993
0001b0 65 c9 3b 3e 32 16 81 3e 19 95 5f 3e 16 c3 2b 3d
       0.18338545 0.25212246 0.2183422 0.041934095
0001c0 e3 1d 3b 3e 75 0b 40 3e 39 ff 12 3d 10 33 44 bd
       0.1827312 0.1875437 0.03588793 -0.04790026
0001d0 b2 d2 36 3e f9 11 12 3d fd f4 46 3e d0 f2 b2 bd
       0.17853811 0.03566167 0.19429393 -0.08737719
0001e0 2d 63 cd 3d e1 7c 2a 3b 43 c3 74 bc 6c 76 05 3e
       0.10028682 0.0026014375 -0.014939132 0.13033456
0001f0 ea 54 ef 3d 59 60 0f 3e 88 5c 0a 3e 4a e3 08 3d
       0.11686118 0.14001597 0.1351186 0.033419885

bias_hh_l0 f4 [128]
000000 5e 3f a5 3c 48 3d 6b bc 58 18 ae bd 11 55 88 3d
       0.020171817 -0.014357872 -0.08500737 0.0665685
000010 eb 24 ad ba 1f fb b4 ba 6b 45 9b 3d 65 ba 39 3e
       -0.0013209855 -0.001380775 0.075816 0.1813751
000020 6f 24 43 bd e3 c8 1b bc b7 12 c6 3d 11 a8 3f bd
       -0.047642168 -0.009508344 0.09671538 -0.04679114
000030 b3 32 21 3e 7f 2c 92 bd 75 64 7e 3e 7c 60 82 3e
       0.15741996 -0.07137393 0.24843009 0.25464237
000040 1c 41 70 bd 74 1a 07 3e 2c c4 13 3e df cf 1d 3e
       -0.058655843 0.13193685 0.14430302 0.15411328
000050 12 ec 13 3e 59 50 f4 3d ef 7e 1b bc a1 a4 ad bd
       0.14445522 0.119293876 -0.009490713 -0.08478666
000060 60 c6 b6 3d 28 a9 dd 3d b2 10 99 bd 82 6c a2 bc
       0.08924556 0.108232796 -0.074738875 -0.019827131
000070 f4 20 ac 3c f6 21 2a 3e 7d c6 fc 3d 25 b9 74 3e
       0.021011807 0.16614518 0.12342546 0.23898752
000080 d8 c4 53 3e bc af 97 bc 90 b0 65 3e 1d 18 de 3d
       0.20680559 -0.018516414 0.22430634 0.10844443
000090 e6 7c 0c bd ad 77 b3 3d c8 74 23 3e c1 64 14 3e
       -0.0342988 0.08763061 0.15962517 0.1449156
0000a0 f4 fd ef 3b 48 4a 87 bc 23 4a 21 3e 7f c6 fb 3d
       0.0073239747 -0.016514912 0.15750937 0.122937195
0000b0 c6 64 61 3e 4d c6 7e bc d7 4b ad bc 4d c6 b4 3d
       0.22011098 -0.015550208 -0.021154327 0.08826885
0000c0 34 00 83 3d 06 92 0c bd 98 d7 81 3d 5a 17 0a be
       0.06396523 -0.034318946 0.06339949 -0.1348547
0000d0 e0 6f 7a 3d 8c cb 09 bd f5 48 5f 3d 96 7b 44 3e
       0.06114185 -0.033641383 0.054512937 0.1918777
0000e0 99 c6 ee 3c 1c 04 70 3e 78 2e 64 3e 72 b0 05 be
       0.029147433 0.23439068 0.22283351 -0.1305559
0000f0 99 2a 84 3e c6 f7 4c 3e 49 77 80 bd 74 a0 27 bd
       0.2581375 0.20016393 -0.06272752 -0.040924504
000100 87 c6 14 bd fb 9d 74 bd 8d 97 60 bd 67 76 b8 bd
       -0.036322143 -0.059720974 -0.05483203 -0.090069585
000110 b2 8b b7 ba 58 77 48 3d 9a ea 9f 3b b8 b0 1d 3e
       -0.0014003424 0.04894194 0.0048802616 0.15399444
000120 25 c2 be bd a2 0c 2b 3e 8c a7 55 bc 36 a4 1a bd
       -0.09314374 0.16704038 -0.013040435 -0.03775426
000130 56 ac 3e 3d 3e 83 9c bd 66 62 6d bd c0 4b 8c 3d
       0.04655107 -0.0764222 -0.05795517 0.06850386
000140 68 8a e1 bd 2e 23 49 bd 2b b6 33 3e 6c 84 34 be
       -0.11012727 -0.049105816 0.1754996 -0.1762864
000150 b9 9c c7 bd d6 c6 b1 bd 8a d2 8c 3d ab 28 4f 3e
       -0.09746689 -0.08680503 0.06876095 0.20230357
000160 f9 5d 14 3b 11 7d b7 3d 50 b7 5e 3d 73 ff d8 bd
       0.002263902 0.089594014 0.05437404 -0.10595598
000170 38 40 4a 3e df ee d8 bd 2d 87 5c be 5f 39 c5 bd
       0.1975106 -0.10592436 -0.2153594 -0.09630083
000180 1b 1e 18 3e a0 0f 46 3e 56 82 0f 3d 1b 3f d4 3d
       0.14855234 0.19341898 0.035036407 0.10363599
000190 e6 3b 14 3e 58 45 3d 3e 3a 23 50 3e 33 d5 2d 3d
       0.14475974 0.18483484 0.20325938 0.04243965
0001a0 63 e2 7a 3d cf 63 1a 3e 7e bc b9 3d 2b d9 78 3e
       0.061251055 0.15077136 0.09069155 0.24301593
0001b0 af da df bb 72 0d b4 3d a3 cf 5b 3e a0 ff 74 3e
       -0.006831489 0.08791627 0.21465926 0.23925638
0001c0 80 ce fa 3d 4b 3d aa 3c 27 a3 7d 3e 72 7a 1a 3d
       0.12246418 0.02078118 0.24769269 0.03771443
0001d0 ab 10 e7 3d 1f 96 27 bd 1b a4 38 3e 8f c0 56 3e
       0.11282476 -0.04091465 0.18031351 0.20971893
0001e0 dc 56 61 3e f6 3f 3b 3d 07 44 5e 3e 11 23 b4 bd
       0.2200579 0.045715295 0.21705638 -0.08795751
0001f0 e0 08 49 3e c9 c8 53 3e fe 93 65 3e 99 cc 78 3c
       0.19632292 0.20682062 0.22419736 0.015185499

weight_ih_l0 f4 [256, 32]
000000 02 28 d7 bc 8f 6d b5 3d 99 5f b0 3d 16 9b 58 3c
       -0.026264194 0.08858787 0.08611984 0.013220569
000010 c6 4c 88 3d da dd 2f 3d 23 63 2c 3d c9 ed 04 3c
       0.06655268 0.042936184 0.04208673 0.008113333
000020 08 4f ab 3c 68 6f e8 bd 33 48 af bd 9c 31 6c bc
       0.020911708 -0.11349374 -0.08558693 -0.014416125
000030 51 e1 e1 bc c5 07 ae bd 66 95 c0 ba 62 f6 5e bd
       -0.02757326 -0.08497576 -0.0014692962 -0.054434188
000040 03 bb d9 bc cf b7 3b 3d e2 68 99 bd 92 f5 cf 3c
       -0.026578432 0.04582959 -0.07490708 0.025385652
000050 a2 d0 de bb 1c 3a 82 3d fe d9 eb bd ea f2 ff 3d
       -0.0067997733 0.0635874 -0.11516188 0.12497504
000060 f4 fb c8 3d 56 bd fb bd 75 40 e9 3c 98 42 86 3d
       0.09813681 -0.12291972 0.028473118 0.065556705
000070 d8 0b b4 3d 9a ce f6 bd e9 bc 8c 3d 3b 93 ee 3d
       0.087913215 -0.12051125 0.06871969 0.11649176
000080 72 38 03 3e f6 2c 0c 3e 01 60 f4 bc c8 10 e6 3d
       0.12814501 0.13689026 -0.029830934 0.112336695
000090 1d 71 fd 3d c0 0c b2 3d de ef bb 3c b4 a4 6b bc
       0.1237509 0.08693838 0.022941526 -0.01438253
0000a0 33 8a 88 3d 83 1f 3d 3e 6a a6 a6 bd 78 f8 c5 bd
       0.066669844 0.18469052 -0.0813721 -0.09666532
0000b0 3e 77 1b 3b f0 30 e6 3d 11 b7 46 3d 6c 1f 74 3b
       0.0023722197 0.11239803 0.04851443 0.0037250174
0000c0 62 1f e1 bd 28 14 4a bd 84 e3 05 3e 5c ab 14 3e
       -0.10992314 -0.04933563 0.13075072 0.14518493
0000d0 51 06 88 bd 0f a2 63 bd 0d d0 54 bd 70 8d e3 3c
       -0.0664183 -0.055574473 -0.051956225 0.027777404
0000e0 b2 5a 22 be b2 4c f5 3d b4 e3 8e 3d b5 d3 8f 3d
       -0.1585491 0.11977519 0.06977025 0.07022802
0000f0 3d c1 3a 3e 57 2f b8 bc 4c 69 d1 bd c7 a0 89 bc
       0.18237777 -0.02248351 -0.10225162 -0.016800297
000100 27 ad e2 bd 4c 57 d6 bd 30 a3 79 bd f7 67 05 bd
       -0.110681824 -0.10465869 -0.060946643 -0.03256985
000110 a4 2e b0 bc 59 d2 2b bd eb 7b 94 bd e9 35 1d 3d
       -0.021506615 -0.04194865 -0.07250198 0.03838149
000120 cc 6d 85 bc 70 ad c5 bd 19 65 54 3c 2d a8 ad 3b
       -0.016287707 -0.09652221 0.012963557 0.005299589
000130 6f 50 b1 bc 52 eb 6a bd fe af 82 bc f3 3c 08 bd
       -0.021644799 -0.057353325 -0.01595306 -0.03326125
000140 ee 6d 7d 3d b7 3b d6 bd 56 06 d1 bd 18 26 19 bc
       0.061872415 -0.104606085 -0.102062866 -0.009347461
000150 f7 c0 c5 bc 25 75 cf bd ef 58 51 3d 2d 3a 47 3d
       -0.024139864 -0.101297654 0.051110204 0.048639465
000160 bd ed 20 bd 36 b6 88 bd 0e 40 cf bd d7 95 c7 3d
       -0.039289225 -0.06675379 -0.10119639 0.097453766
000170 dd 81 03 3c 6d 50 87 bd 5e ac 41 bd 7f ed 2b bd
       0.008026567 -0.06607137 -0.047283523 -0.04197454
000180 da da 0d bd 56 be 2d be 5d 0a 8f 3b 80 05 e8 3c
       -0.03463254 -0.16967139 0.004365249 0.028322935
000190 81 e1 39 3e 33 ec ae 3c 32 09 3c 3e 52 ed 32 3d
       0.18152429 0.021352863 0.18362883 0.043683358
0001a0 a8 c6 1e be f8 f6 b6 3d 6a 15 84 3b 36 d2 dd 3d
       -0.15505469 0.08933824 0.004030873 0.1083111
0001b0 48 25 55 3d b5 e4 06 bd 9a bb af bc 7f 09 9b 3c
       0.052037507 -0.032932956 -0.02145176 0.018925427
0001c0 38 3e fe bd 3f c6 e3 bd 3e e1 53 bd 99 34 cc bd
       -0.12414211 -0.11121797 -0.05172848 -0.0997097
0001d0 c8 26 f5 3c 6a 28 11 bc 36 01 04 be 18 ce cc 3d
       0.029925719 -0.008859733 -0.12891087 0.10000247
0001e0 ae c6 45 3e e9 f6 6f 3d cc 8d 0b 3e f7 5d a3 bb
       0.19314072 0.05858508 0.1362831 -0.0049855667
0001f0 f3 39 fe 3d e7 c8 4c 3c 05 7a 49 be 79 c5 6e bd
       0.12413397 0.012499071 -0.19675453 -0.058293793
000200 2f 4c 05 3e 44 3f aa 3c 97 80 bf bc 7f a9 5c 3e
       0.13017343 0.02078212 -0.023376746 0.21549033
000210 f5 bd 39 bd 89 9b 05 3e 14 7e d3 3d c0 2a a9 3c
       -0.045347173 0.13047613 0.10326782 0.020650268
000220 73 93 1b be ea a3 d7 3c e8 52 3a bd 8a 1f 25 bd
       -0.15192966 0.026323278 -0.04548922 -0.04031328
000230 1b d9 59 3d 83 98 32 bd f6 c9 75 bd bf 56 e7 3d
       0.053185564 -0.043602478 -0.060007058 0.112958424
000240 12 03 07 3d 3a eb 49 3e cc 64 2b 3d 9e 56 c5 bd
       0.032961912 0.19718638 0.041844174 -0.096356615
000250 98 b6 ff bd b6 ca 72 3c 69 47 4c ba d5 2e 25 3e
       -0.12485999 0.014818838 -0.00077926234 0.16131146
000260 3b ef 2c bd 1b 29 8e 3a 29 83 14 3e 0f da 2f 3d
       -0.042220335 0.0010845991 0.14503159 0.042932566
000270 12 f9 0e 3e ed 05 c4 3d 3b f6 43 bd 68 b7 08 bd
       0.139622 0.09571443 -0.047842246 -0.033378035
000280 b4 bd d1 bd 64 d0 96 3c 1c 48 30 39 2a 26 26 bd
       -0.10241261 0.018409915 0.00016811531 -0.04056374
000290 04 ea 80 3d 47 c6 c4 3d 95 4d 32 3d f9 a2 3b bd
       0.06294635 0.09608131 0.04353102 -0.04580972
0002a0 a6 5e 3d be ea 35 f3 bd 3e ce a2 bc 2c 8f e7 3d
       -0.18493137 -0.11875518 -0.019873735 0.11306605
0002b0 ed 70 9d 3d 4b 76 a1 3c 2a 89 20 be a1 71 98 bd
       0.076875545 0.019709727 -0.15677324 -0.07443548
0002c0 b7 dd e5 bb 89 5c 7c 3d a1 c6 f0 3d 6a 32 10 be
       -0.007014956 0.061611686 0.117566355 -0.14081731
0002d0 c3 4c c1 bd e1 2b a5 3b 9e 8d 91 bd b6 e2 e7 3d
       -0.09438469 0.005040631 -0.071070895 0.113225386
0002e0 30 b0 52 3d 81 57 d8 3d 24 b3 c2 bc e4 e9 0a 3d
       0.051437557 0.10563565 -0.023767062 0.03391446
0002f0 02 9d 03 3e 06 14 86 3d 41 22 65 3d 8f ce ca bd
       0.12852862 0.06546788 0.05594087 -0.09902679
000300 83 16 dc bc 58 e6 50 3c 5b a0 8a 3d 97 36 b2 bd
       -0.026866203 0.012750231 0.06768867 -0.087018184
000310 8f e6 b6 3d 2e 53 3c ba ca 50 4e bd 3b 9e 85 bd
       0.08930694 -0.00071840256 -0.050370015 -0.06524321
000320 33 8b e6 3c 3d e7 34 bc 7a 63 b7 3d c9 a8 5b bd
       0.028142547 -0.01104146 0.089545205 -0.053627763
000330 a4 29 ea bd e4 c4 e3 bb 8e e5 b5 bd 96 a7 04 bc
       -0.114337236 -0.0069509614 -0.08881675 -0.008096596
000340 43 07 7f bd 75 ae c2 bd b0 15 a5 3d c5 31 58 3c
       -0.062262785 -0.09505931 0.08060777 0.01319546
000350 a9 93 4a 3d 2d 64 52 3c 66 86 ba bd 64 90 12 3d
       0.049457226 0.012841267 -0.09107666 0.035782233
000360 a6 26 a1 3d 71 49 e9 3d e1 3e a7 bc 2a fd ae 3a
       0.078687 0.11390961 -0.020415725 0.0013350595
000370 76 2b 52 3e 16 4f 2b bd 61 65 4e b9 b2 2b d2 3c
       0.20524392 -0.04182347 -0.00019683458 0.025655601
000380 3d a2 23 bd 8a 26 0a bc 46 91 b0 bc 22 93 2e be
       -0.039949644 -0.00843204 -0.021553647 -0.17048314
000390 5c 3e 27 3c a6 fc 9d bb ef 56 07 3e 72 15 6f bd
       0.010207739 -0.004821378 0.13216756 -0.05837006
0003a0 e0 fa f1 bd 9b e4 15 be ba 71 c4 bd 02 56 e5 3d
       -0.11815429 -0.14637987 -0.09592004 0.11198045
0003b0 cd 92 a5 3d a3 15 cf 3d f7 bc 96 3d 62 c0 1f 3d
       0.08084641 0.10111549 0.07360261 0.03900183
0003c0 5a 7c 5d bd e3 ac 81 bb 1c 10 50 3d 01 d5 91 3d
       -0.05407367 -0.0039573773 0.050796613 0.071207054
0003d0 81 b4 ba bc 19 bb 58 3c a2 d0 1c 3d 4e ee 6f ba
       -0.02279115 0.013228201 0.038284905 -0.00091526366
0003e0 d6 71 e6 3c d5 c7 33 bd 08 ad 0e bd 37 8b 52 3c
       0.028130453 -0.043891747 -0.034832984 0.012850574
0003f0 53 b2 e1 bd 79 e2 6b 3d 75 b0 12 be a6 8d b7 bd
       -0.11020341 0.057589028 -0.14325126 -0.08962564

weight_hh_l0 f4 [256, 64]
000000 bf 1f 00 3d 73 3c c0 3d f4 cb 4b 3d dc 0c 80 3d
       0.031280275 0.0938653 0.04975505 0.06252453
000010 ed 86 b7 3d 2a 16 dd bd f3 74 0a 3d 06 16 a6 3d
       0.08961282 -0.10795243 0.033802938 0.081096694
000020 74 bf f0 bd ce 74 1d be 4a 5f fa 3d 09 c1 90 3d
       -0.11755267 -0.15376589 0.12225206 0.070680685
000030 32 51 c4 3c 77 0e 0d bd ae 14 1a 3d ce d7 ba 3d
       0.023964498 -0.034437623 0.037617378 0.09123193
000040 fc 74 dd bc 78 ff 14 be 90 fd f8 3d a2 0b 16 3e
       -0.027033322 -0.14550579 0.12157738 0.14652875
000050 94 7f fd 3d 62 84 65 3d d1 55 2f 3d 41 32 89 bd
       0.12377849 0.056034453 0.04280645 -0.06699038
000060 11 57 bf bd 82 0e f7 3d 94 db 84 3d d4 a7 45 bd
       -0.093427785 0.12063314 0.06487194 -0.048255756
000070 06 d1 9b 3c a4 90 6c bd 2d 79 4b 3d 83 27 3c 3d
       0.019020569 -0.057755128 0.04967611 0.04593612
000080 7c f3 32 3d c1 a1 17 3e 76 89 44 bd d9 7d a0 3d
       0.043689236 0.14807798 -0.047982655 0.078365035
000090 40 c4 9c bd 91 0e 8a 3c 4d 53 0e bd 30 e0 b5 bc
       -0.07654619 0.016852649 -0.03474741 -0.022201627
0000a0 b1 f2 26 bc 3a 1b 10 3d d6 e8 eb 3c 19 21 1e 3e
       -0.010189698 0.035182215 0.028797548 0.15442313
0000b0 af 2d c3 3d da 7c a4 bd f3 ba 5f bd 2b d0 59 3d
       0.09530198 -0.08031626 -0.054621648 0.05317704
0000c0 1e a1 50 bd b7 44 02 3e f8 df 09 be 74 9c ca bd
       -0.050934903 0.12721525 -0.13464344 -0.09893122
0000d0 07 28 f6 bc 21 97 a8 bc cb 83 33 be 17 b2 46 be
       -0.030048383 -0.020579876 -0.17530744 -0.19403873
0000e0 bd 15 1f be c7 35 97 3d 70 5f e3 bd 67 5b 4b bd
       -0.15535636 0.07383304 -0.11102188 -0.049647715
0000f0 d9 c2 9b 3d 15 46 14 3e cd e8 cf bd cb 74 f1 bd
       0.076055236 0.14479859 -0.10151825 -0.117898546
000100 79 9d 07 be 9f 05 81 3d 12 45 05 3e e3 e5 47 3b
       -0.13243665 0.062999 0.1301463 0.0030502013
000110 97 87 bd 3c 03 22 92 bd 81 35 e9 bc de a2 20 3d
       0.023135943 -0.071353935 -0.028467895 0.039217822
000120 6e ec 07 be 82 89 32 be dd 0d 16 bd 63 cd 0b 3d
       -0.13273785 -0.17435268 -0.036634315 0.03413142
000130 fa ea 00 be 70 92 67 3e 4b 96 a7 bd a8 bd 4d bd
       -0.12589636 0.22614455 -0.08182963 -0.0502297
000140 87 12 12 3d 79 80 75 3d a6 f1 14 3b e0 6b 63 3d
       0.0356622 0.059936974 0.0022727042 0.0555228
000150 10 95 4c 3d ad 1e b5 bd 46 2a 46 3d 37 21 6a 3d
       0.049946845 -0.088437416 0.04838016 0.057160582
000160 1c 4a 8f bd b7 a1 1b 3d 3a 17 d4 bd f3 59 39 3e
       -0.06996557 0.03799602 -0.103559926 0.18100719
000170 1b 7c d9 bc 2f 35 8d 3d c3 18 99 3d 22 2d 2d bd
       -0.026548436 0.068949096 0.07475426 -0.04227937
000180 7b 3d a9 3d 17 29 36 3d e3 b8 60 3d 19 f6 80 3d
       0.082636796 0.04447278 0.05486382 0.062969394
000190 a8 79 d7 bd f8 55 4c bd da 3b 80 bd a0 61 18 be
       -0.10521251 -0.049886674 -0.06261416 -0.14880991
0001a0 1e 6c 99 3b 48 ff 4b 3e 4b f5 bd bd 2e 77 50 3d
       0.004682078 0.19921601 -0.092753015 0.05089491
0001b0 e2 1e 37 3d 2f 27 97 bd de a5 16 3c a1 8a 1b be
       0.044707187 -0.073805206 0.009194819 -0.15189601
0001c0 58 ef 2b 3d c3 8b 8e bd 5a 8c 42 be c8 ce 26 be
       0.041976303 -0.06960251 -0.18998852 -0.16289818
0001d0 7c ca 9a 3d 9e f7 11 3e 10 ed 37 bd 7a 9a 96 bd
       0.07558152 0.14254615 -0.044903815 -0.07353683
0001e0 9d 87 c7 bd 27 b3 6c 3d d9 f2 3e bd ec 02 24 3d
       -0.09742663 0.05778804 -0.046618316 0.04004185
0001f0 b5 5c 02 be b2 b0 27 bc 20 2d 66 bb 65 43 38 be
       -0.12730677 -0.010234999 -0.0035122111 -0.17994459
000200 38 0b aa bd 63 0f 56 bd 81 95 fa bd 43 4f 65 3e
       -0.08302921 -0.052260768 -0.12235547 0.22393517
000210 c5 99 09 3e 84 14 10 be af f2 a2 bd ec a5 02 be
       0.13437565 -0.14070326 -0.079564445 -0.12758607
000220 72 1e f9 3c 0a bd 40 3d ad fa b1 bc 24 33 b6 bd
       0.030410025 0.04705528 -0.021725977 -0.08896473
000230 e3 23 7d 3b 76 66 d9 3d 70 54 cd 3d 6f 58 0b 3e
       0.0038626126 0.10615246 0.10025871 0.13607953
000240 9b 5a ee 3c cd 19 b6 3d 83 5a 49 bd 14 6e 42 3d
       0.029095938 0.0889164 -0.049158584 0.04746826
000250 80 e6 41 3e 02 28 2e be 61 51 8d bd fe ca b0 3c
       0.18935585 -0.1700745 -0.069002874 0.02158117
000260 66 8b e0 3d 2e b8 b3 3d 29 49 4d 3d 63 db 27 3e
       0.10964088 0.08775364 0.0501186 0.16392283
000270 3e 96 c4 3b 30 d4 d7 3d 50 e6 0e 3e ce ee 9b 3d
       0.0059993556 0.105385184 0.13955045 0.07613908
000280 55 fb 07 3e 7d 34 4f 3e c1 bb d5 3d 68 18 74 bd
       0.1327947 0.20234866 0.10436202 -0.059593588
000290 a1 c0 e5 bd 0e e3 9e 3b fa 43 31 3d d9 cf c8 3d
       -0.11218382 0.0048488444 0.043277718 0.09805269
0002a0 78 13 0f 3e 0d d0 4f 3e 10 88 51 bd 29 8b b9 bc
       0.1397227 0.20294209 -0.05115515 -0.022649365
0002b0 5d 42 c3 3c 3f 34 d3 bd cc 3d 80 3d e8 af cd 3c
       0.023835355 -0.103126995 0.06261787 0.025108293
0002c0 79 bf a2 3d 1c d2 00 bd 86 8a 84 bc a2 53 08 bc
       0.07946677 -0.031450376 -0.016179334 -0.008320721
0002d0 e4 a6 b8 bd 15 22 52 3d 54 7f aa bd f8 1c 50 3b
       -0.09016207 0.051302034 -0.08325067 0.0031755548
0002e0 ac 90 bf 3a 75 8a 85 3b 8c ad 45 3c dd 94 c1 3d
       0.0014615259 0.0040753433 0.012065303 0.094522215
0002f0 25 22 e9 3d 65 d5 1f 3e f0 c2 24 3d cb fb 38 bd
       0.11383466 0.15608747 0.04022497 -0.045162003
000300 cc 90 35 be 17 09 4e 3e 11 d1 de bd 35 4e 89 3c
       -0.17731017 0.20120655 -0.1087972 0.016760925
000310 b0 1d d7 3c ff 7b dd bd 92 37 5f be 2e 95 88 be
       0.026259273 -0.10814666 -0.21798542 -0.26676315
000320 92 c0 bb bc 2f 42 09 be 80 fe c4 3d 6c 22 21 bd
       -0.022918973 -0.13404153 0.096188545 -0.039339468
000330 8b 59 8b be fe d3 82 3e 75 eb c4 3d 42 a4 1f 3e
       -0.27216753 0.25552362 0.09615222 0.15590003
000340 49 14 3b 3e dd 7b 29 be 37 fd 1a 3d fb 9b 25 3d
       0.18269457 -0.16551156 0.03783914 0.040431958
000350 b4 a6 dd 3d bd 7f 38 be ee 2b c0 bd d6 72 2b be
       0.10822812 -0.18017478 -0.09383379 -0.16743025
000360 e7 f6 cd bd 29 b3 00 3d 95 3c f4 bd 94 49 07 3e
       -0.100568585 0.03142086 -0.119256176 0.13211662
000370 70 63 3a be c3 9a 8b bc 08 22 81 3d 4e fa 3b 3c
       -0.18201995 -0.01704157 0.06305319 0.0114732515
000380 93 b7 99 3e a5 7b b3 3d 17 53 e7 3d 04 69 30 3e
       0.3002287 0.08763818 0.11295145 0.1722756
000390 ae 29 90 3c bc 53 c5 bc b1 80 0b be 8d 62 87 bc
       0.017598 -0.02408778 -0.1362331 -0.016526485
0003a0 f8 c6 e3 3d 74 0b 5a 3e ba 9f d0 3c 50 40 e8 3d
       0.11121935 0.21293432 0.025466789 0.11340392
0003b0 ed e7 18 be b0 5b 20 be 0c 68 87 bc 60 24 2e be
       -0.14932223 -0.15659976 -0.016529106 -0.17006063
0003c0 70 90 25 be a9 f2 94 3d 6f 42 01 be 57 e8 ef 3b
       -0.1616838 0.07272846 -0.12622999 0.0073213982
0003d0 ca 2c c3 bd b6 9c 7d 3e 1f e3 d6 bd 6b 86 45 be
       -0.09530027 0.24766812 -0.10492539 -0.19289558
0003e0 61 07 05 bd 1f 41 95 3c 23 80 2d bd 51 04 87 3d
       -0.03247774 0.018219529 -0.04235853 0.0659262
0003f0 6b cb ba 3d 00 4d 2b 3e 22 6f 52 be 1c 29 c7 bd
       0.0912083 0.16728592 -0.20550206 -0.09724638

bias_ih_l0 f4 [256]
000000 d8 05 31 3e 4c d6 20 3d 28 ab f4 3d 78 08 ff 3d
       0.17287385 0.03926687 0.11946708 0.12452787
000010 57 49 da bc 7f 2e 44 3e 4f ef d8 3d 88 19 a9 3d
       -0.0266463 0.19158362 0.105925195 0.08256823
000020 96 81 15 3e 51 49 4a 3e 28 75 33 3e 1e e0 e0 3d
       0.14600214 0.1975453 0.1752516 0.10980247
000030 86 fa 02 3e 3d f2 99 bb 71 c5 e6 3c a6 b2 85 3d
       0.1279088 -0.0046980665 0.02817032 0.06528215
000040 dd de 6a bd e0 69 82 3d 6e 70 40 3d 4a b4 0a 3d
       -0.057341445 0.0636785 0.04698222 0.033863343
000050 f3 a7 44 3e ff b2 0d 3e fd 1d b3 3d a7 27 15 3d
       0.19204693 0.13837813 0.08745954 0.03641477
000060 d2 fe e1 bb 37 5d 72 3c a0 3d 2b 3e f8 b8 31 3d
       -0.006896832 0.014792732 0.16722727 0.04338929
000070 52 f2 f7 3d 67 10 81 3c b5 a2 41 3e 3e de 67 3d
       0.12106766 0.015754892 0.18909724 0.05660843
000080 57 67 04 3e 62 d3 18 3d 7d db b5 3d 35 61 e7 3d
       0.12930046 0.037310965 0.08879755 0.11297838
000090 e1 36 4e 3e 94 b1 23 3e 8e 26 84 bd fe 02 e7 3d
       0.20138122 0.1598571 -0.06452666 0.112798676
0000a0 7c d7 2e bd 1c 68 0c 3d 3b 1e aa 3d 7d 7c b3 3b
       -0.04268597 0.034278974 0.08306547 0.0054774866
0000b0 d4 a1 a6 bc 49 6c dd 3d d0 73 0c bd 8c 28 b5 3d
       -0.020340838 0.108116694 -0.034290135 0.08845624
0000c0 40 d2 9b bb 48 69 b9 3d b6 51 34 3e 1f 82 45 3c
       -0.0047552884 0.09053284 0.17609295 0.012054949
0000d0 dd 41 95 3c 51 fc 80 bd 84 f5 68 bd cd 8f 11 3e
       0.018219883 -0.062981255 -0.056874767 0.14215012
0000e0 0a 78 93 3c e4 68 49 3e 81 e4 02 bd 3a e3 31 3d
       0.018001575 0.19668919 -0.0319562 0.04342959
0000f0 84 b7 45 3e 43 26 95 bd 43 15 a4 3d 2f b2 27 bd
       0.19308287 -0.072826885 0.08011868 -0.040941413
000100 d2 9a 5c 3d d2 3e ff 3c 3c 9b 12 3e bd aa 16 bc
       0.053858586 0.031157885 0.1431703 -0.009195981
000110 db 1a f8 3c 59 44 3a 3e 5d fd fc 3d 5f f3 22 3d
       0.030286243 0.18190135 0.12353013 0.039782878
000120 36 8c b0 3c 32 0f 26 3e 19 5a 9a 3d 0f 25 aa bb
       0.021551233 0.16216734 0.07536716 -0.005192406
000130 fc 80 21 3e c4 e4 0d 3e c9 60 85 3d 28 f9 c7 3c
       0.1577186 0.13856798 0.06512601 0.0244108
000140 e8 27 7d bc 41 17 9f bd ce 4d 03 3e 96 b7 ba 3d
       -0.015451409 -0.07768107 0.12822649 0.091170475
000150 f1 6c 5a 3d 5e 39 a9 bd 8a a6 16 b9 c2 7b 3d 3e
       0.05332655 -0.08262895 -0.00014367155 0.18504241
000160 67 d4 0b bd 69 9d c0 3c bb e5 e0 bc d2 f1 87 3d
       -0.03413811 0.023512559 -0.027453294 0.066379204
000170 9f 78 e1 3d 30 44 2c 3e 0b 8e 6b bd 4b 2d 2a 3d
       0.11009335 0.16822886 -0.05750851 0.0415471
000180 17 98 1d bd 51 6c de 3d 12 f7 98 3d 2c 63 c3 3d
       -0.038475122 0.108605035 0.07469 0.095404
000190 ae a4 5b 3d 86 c6 2c 3d 78 60 2f 3e 76 20 b4 3d
       0.053623848 0.042181514 0.17126644 0.08795254
0001a0 93 1d 1f 3e 98 30 2d bd 1e 6a 19 bc c9 f4 52 bc
       0.15538625 -0.04228267 -0.009363679 -0.012875744
0001b0 17 67 1d bd 19 74 86 3d 3e 13 11 bd 20 bd a8 bd
       -0.038428392 0.065651126 -0.03541874 -0.08239198
0001c0 3d 65 bf 3b bb 3c 25 3e 60 67 8b bd 92 06 00 3d
       0.005840926 0.16136448 -0.068068266 0.031256266
0001d0 76 0f dd bc be 9c 1a 3e b7 2d 91 3c 68 0c 48 3d
       -0.026984911 0.15098855 0.017721994 0.048839957
0001e0 ff 9f 2d 3e d5 74 f5 3d d6 a6 2b 3e 46 3b 14 bc
       0.16955565 0.119851746 0.16762862 -0.009047335
0001f0 ff 1d ac 3c cd e7 6e bd 39 a9 1d 3e bf 6c 4e bd
       0.021010397 -0.05832653 0.15396585 -0.050396677
000200 c2 01 3b bd 22 f0 11 3e 6e 26 71 ba c6 ba 73 3d
       -0.045655973 0.1425176 -0.0009199147 0.059504293
000210 f1 2c c0 3d d6 b9 bf bd 26 97 a7 bd 02 57 41 bc
       0.09383572 -0.09361617 -0.08183126 -0.011800529
000220 eb a1 4a 3d dc 57 91 bd 87 c2 89 3d aa 92 e0 bd
       0.049470823 -0.07096836 0.06726556 -0.10965474
000230 23 b2 80 bd 50 d8 0f 3e 5f 6b 08 3e d5 c8 ae 3d
       -0.06283977 0.1404736 0.13322209 0.085343994
000240 9e ab b4 3d 8d 13 f9 bd c8 48 5e bd fa cd 85 bd
       0.08821796 -0.12161932 -0.05426863 -0.065334275
000250 04 62 d4 3d 5d 3c b0 bd 6e 6d bb 3c 99 d9 02 be
       0.103702575 -0.086052634 0.022879329 -0.1277832
000260 66 f1 74 bd 97 73 13 3d c7 35 b4 bd 9a 1b 71 3d
       -0.059800528 0.035998907 -0.0879932 0.058864214
000270 12 01 6e bd 57 9b 9a bd 20 ae 8d bd 61 9f 0b bc
       -0.05810649 -0.0754916 -0.06917977 -0.008521886
000280 65 48 a9 3d 9e 58 26 3e 50 6a a2 3d ed 9c 09 3e
       0.08265761 0.16244742 0.07930434 0.13438769
000290 0e 8f 7a bb a1 39 ae 3d fe d4 15 bd e4 3e e9 3c
       -0.003823224 0.085070856 -0.03658008 0.028472371
0002a0 84 30 6e bd b9 16 04 3d 94 a2 a7 bd 72 33 6b 3d
       -0.058151737 0.032248233 -0.08185306 0.05742211
0002b0 2f 87 72 bd c9 37 ed bd b2 4e cc 3d 75 55 c9 bc
       -0.059210952 -0.11582906 0.099759474 -0.024576882
0002c0 9c 65 ee bd 0e bb 52 bc d9 d8 dd 3c 65 04 f1 bd
       -0.11640474 -0.01286198 0.02708094 -0.11768416
0002d0 ad e4 22 bc b4 84 d3 3d 37 7c c4 bd ba 34 f1 bd
       -0.009942216 0.103280455 -0.095940046 -0.11777635
0002e0 21 57 92 bd 16 7b a8 3d 0d a2 48 bd 23 a9 c4 3d
       -0.07145525 0.08226602 -0.04898267 0.09602573
0002f0 db e8 f7 3d 87 16 bd 3d f7 24 d1 bd 11 bc 9c bd
       0.121049605 0.092328124 -0.102121286 -0.07653058
000300 dd 66 c8 3d 18 bb b7 3c 6d a1 13 3e 02 b6 63 3e
       0.097852446 0.02242808 0.14417048 0.22237399
000310 02 d9 2d 3d fd 75 c5 3d 4b 69 41 bc aa 8d c7 3d
       0.042443283 0.09641645 -0.011804889 0.09743817
000320 0d ea 25 3e f9 69 9b 3b bd c9 30 3e 8f c0 7b 3c
       0.16202565 0.0047428575 0.17264457 0.015365734
000330 e1 13 1f bd 1a 32 2b 3e 73 76 0b 3e c9 e6 14 3e
       -0.038837317 0.16718331 0.13619404 0.14541163
000340 22 3f bd 3d 3a 77 71 3e 9b 07 ac 3c 4c 9f fa 3d
       0.09240557 0.23580638 0.02099972 0.12237415
000350 68 84 be 3d 81 48 a8 bd 1e dc 1d 3e 1f a8 e0 bc
       0.09302598 -0.08216954 0.15416 -0.027423916
000360 dc cf 53 3d e2 ef 70 3d ae 3a cb 3d 88 0b f7 3c
       0.051711902 0.05882252 0.09923302 0.030156866
000370 5c ca 55 3d f0 e9 36 3e 2f 0d ef 3c 77 b9 29 3d
       0.052194938 0.17862678 0.029181091 0.04143664
000380 a2 a5 ce 3d a7 69 f1 bc 38 e2 a6 3d 5f 90 c3 3d
       0.10090186 -0.029469324 0.081486166 0.09549021
000390 8e a4 39 3e 44 78 be 3d 39 a7 11 3e 7b 9d 03 3e
       0.18129179 0.093002826 0.14223947 0.12853043
0003a0 37 04 16 3e 90 73 1d 3e 93 93 98 3b 5b 8f 96 bb
       0.14650045 0.15376115 0.004656264 -0.004594726
0003b0 61 d0 ae 3d b4 50 8a 3d 64 fc 9f 3d 86 f5 1b 3d
       0.08535839 0.06753674 0.078118116 0.038075946
0003c0 cf 7e 8c bc 28 c5 77 3b 94 64 b8 3a 8a 65 a4 3d
       -0.01715031 0.0037806723 0.001406806 0.080271795
0003d0 2b ea 00 3e 06 24 1e 3e 67 de 83 3d 1b 3e d6 3d
       0.12589328 0.1544343 0.06438904 0.104610644
0003e0 3d b9 65 3d e7 80 08 3e 10 1c e9 3d 0f c7 37 3d
       0.05608486 0.13330422 0.113823056 0.04486757
0003f0 d2 1e 35 3e a7 8c da 3d fa a4 2e 3e c8 62 a4 3c
       0.17687538 0.106713586 0.17055121 0.020066634

bias_hh_l0 f4 [256]
000000 22 ff cf 3d f0 d9 c1 3d bb 2a d7 bc 51 c0 aa 3d
       0.101560846 0.094653964 -0.026265493 0.08337463
000010 5d 80 d0 3d 9b 55 08 bd cf 65 04 3e c1 47 92 3a
       0.10180733 -0.033284765 0.12929462 0.00111603
000020 8a 7c c2 3d 5b 58 20 3e d8 90 0d bd d5 04 27 3d
       0.0949641 0.15658705 -0.034561962 0.040776093
000030 10 75 8a 3d 92 93 9a 3d c6 17 90 3c 76 e6 ea 3d
       0.06760609 0.07547678 0.017589461 0.11469738
000040 7c 10 1b 3e 40 20 be 3d c2 c7 f0 3d 79 2c 00 3e
       0.15143007 0.09283495 0.11756851 0.12516965
000050 0e 2f 87 bc 84 34 e0 3b 28 5b 4b 3e 6e 46 33 3e
       -0.01650193 0.006842198 0.19858992 0.17507336
000060 1d 3f 51 3e be 5d 23 bd b1 36 d5 3b c8 2c fa 3d
       0.20434232 -0.03988432 0.006506764 0.122155726
000070 99 ef 42 3d a7 11 14 3e aa a9 2e 3e a6 fc 93 3d
       0.04759178 0.14459859 0.17056909 0.07225923
000080 87 31 d7 bc 62 76 b4 3d 97 06 ba 3d 4f d1 01 bd
       -0.026268734 0.08811642 0.09083288 -0.031693753
000090 12 5f f6 3a d5 bc 66 bd 95 b2 e1 bc 3d 34 15 3e
       0.0018796644 -0.056332428 -0.027550975 0.14570709
0000a0 de 60 79 3c 57 7f 9e 3d e5 e9 a8 bb f2 28 f3 3d
       0.015220849 0.07739132 -0.0051548355 0.11873044
0000b0 24 f0 3d 3e 1d 14 e0 3d 41 c7 94 bc e3 a7 3e 3e
       0.18548638 0.10941336 -0.018161418 0.18618731
0000c0 2f 2a f8 3d 40 4d 33 3d 6a 38 f1 3d d6 4a 15 3e
       0.12117421 0.043774843 0.11778338 0.14579329
0000d0 61 f4 ae 3d 27 d1 37 3c d3 1f dc 3b 5a be f7 3d
       0.08542705 0.011219299 0.006717661 0.120968536
0000e0 93 70 ed 3d 26 d2 50 3d 19 f0 48 bc 37 f5 70 bd
       0.115937375 0.050981663 -0.012264275 -0.058827605
0000f0 b8 ba 3a 3e 9e a4 6f bb 29 5a 5b bd 0c 77 98 bd
       0.1823529 -0.0036566625 -0.05355278 -0.074445814
000100 3b 04 00 3d ca 87 b9 bc c7 89 e6 3d 3d 54 ab 3d
       0.031254034 -0.022647757 0.11256748 0.083656766
000110 6d f0 19 3e de 20 44 3e 13 fe f7 3c 75 0f 13 3c
       0.15033121 0.19153163 0.03027252 0.008975853
000120 a1 6c e2 3d af 45 52 bc 1f d4 42 bd fb 85 23 3d
       0.110558756 -0.012833997 -0.047565576 0.039922696
000130 f3 b9 54 3d b7 76 47 3d 3a 03 a8 bc 8c 4c 5e 3d
       0.051935147 0.0486972 -0.020509351 0.05427222
000140 14 ef 37 3c 53 be af 3d 04 2b cd 3d e5 25 0d 3c
       0.011226434 0.08581223 0.1001797 0.008614992
000150 b4 5e b0 3d d4 f0 ce 3d 5b f2 bf 3d 53 08 23 3e
       0.08611813 0.10104528 0.093723975 0.15921144
000160 19 df 03 bd 12 71 ae 3d 31 c7 db 3d 64 a9 02 3e
       -0.032195184 0.0851766 0.10731352 0.1275993
000170 93 4d f7 3d 9b 57 5c 3c f7 7b 41 3d d7 2e 22 3e
       0.12075343 0.013448621 0.047237363 0.1583818
000180 32 f6 d3 3d 36 d4 72 3d 01 e0 21 3e 16 2a 1d 3e
       0.103496924 0.05928441 0.15808107 0.15348086
000190 bd 44 c3 bc 98 75 19 3e b5 44 08 3d 74 ce 61 3d
       -0.023836488 0.14986265 0.03326865 0.05512853
0001a0 6f 80 82 bc 2e e3 b6 3d 4f 5d 20 3e 7b 51 bc bd
       -0.015930383 0.0893005 0.15660594 -0.09195229
0001b0 5d f0 25 3c ee 09 88 bd f7 ff 9b 3d 36 b9 74 bd
       0.010128108 -0.06642519 0.07617181 -0.059746943
0001c0 60 69 3a 3d 71 06 3c 3d 8d 74 0d 3e 43 56 02 3d
       0.04551065 0.04590458 0.13813992 0.031820547
0001d0 27 25 4f bc bb 70 e5 3c f7 fd b5 bc b0 4d d7 3d
       -0.012643135 0.028007856 -0.022215826 0.105128646
0001e0 4b 28 9e 3d 1f 87 b7 3b 59 48 bd bb a2 01 ae 3d
       0.07722529 0.0056008245 -0.005776447 0.08496405
0001f0 b0 7b 3f 3e e1 83 c1 3d a0 be 0f bd 36 1b 16 3e
       0.18699527 0.09448982 -0.035093904 0.14658818
000200 2c 18 ea 3c 81 7a cd 3c fb 5b 0b bc 4e 72 36 3d
       0.02857598 0.025082828 -0.008505817 0.044542603
000210 da 2f fc 3d 1e 22 87 bd 64 3f 34 bd 76 46 4e bd
       0.123138145 -0.06598304 -0.044005767 -0.050360166
000220 c3 c2 4c 3d 4a b4 16 bd c3 4b 0c 3e 1c 6a dd 3d
       0.049990427 -0.03679303 0.13700776 0.108112544
000230 f2 40 0f bd 84 08 db 3d dc 2c cd bc 07 ad 8a 3d
       -0.034974046 0.106949836 -0.025045805 0.067712836
000240 3a a3 59 3d e4 b2 3f 3d 08 01 91 3d 93 e1 6e 3d
       0.05313418 0.046801463 0.07080275 0.058320593
000250 d2 22 cc 3d 2b c2 50 bd b7 8a 15 bc a3 af 29 3c
       0.09967579 -0.050966423 -0.0091273105 0.010356816
000260 c0 75 8a ba 7b 8a 52 3d a4 71 39 3c 59 db 1a 3d
       -0.0010563657 0.051401597 0.011318598 0.037806842
000270 40 7f 3e bd 23 9d c7 3d 1d 04 0a 3e 26 a5 e5 3d
       -0.046508074 0.09746768 0.13478132 0.1121314
000280 12 10 af 3d ba ab f8 3d d4 91 d0 bd cb 0b 8f 3d
       0.08547987 0.12142129 -0.101840645 0.06984671
000290 d5 a6 7f bd 31 63 e6 bd 81 5c 3b bc 22 2c 1e 3d
       -0.062414963 -0.11249388 -0.011435629 0.038616307
0002a0 08 0f 6e 3d 84 f9 75 3d 11 f2 6f 3d 5d 8e 8b 3d
       0.058119804 0.06005241 0.058580462 0.06814263
0002b0 fd 6e fd 3b 9b c5 c5 bd 7f 56 2b 3d a3 8f 1d bd
       0.007734178 -0.09656831 0.041830536 -0.03846706
0002c0 22 49 c9 3d 01 52 16 3d 90 2a 02 be 56 6e 9d 39
       0.09828402 0.0366993 -0.12711549 0.0003002758
0002d0 a4 7e da bd a7 f9 a5 3d b0 d2 92 bd 5f f8 e2 bd
       -0.10668686 0.08104258 -0.07169092 -0.11082529
0002e0 e5 12 52 3d c6 e3 96 3d d2 99 0d bd 0e fd f6 3c
       0.05128755 0.07367663 -0.034570523 0.030149963
0002f0 8c 0c 6f bd 3d ba ed 3d 73 3f e9 bd bd 28 06 be
       -0.058361575 0.11607788 -0.11389055 -0.13101478
000300 68 5b 2a 3e 85 09 4a 3e ac c9 ab 3d b4 a2 bc 3d
       0.16636431 0.19730194 0.08388075 0.09210721
000310 1d fa 82 3b c4 fa 5e 3d df 11 12 3e 1b 95 48 bc
       0.003997101 0.054438367 0.1426463 -0.012242581
000320 a7 0a 67 3c f3 a4 03 3e 37 11 c6 3d cf 4b 91 bd
       0.014101661 0.12855892 0.09671252 -0.070945375
000330 86 c9 1e 3e cd 74 61 3c 36 5a 21 bc 7d 50 e7 3d
       0.15506563 0.013760758 -0.009848168 0.11294649
000340 43 3e c3 bc 18 a6 7e 3d eb 80 da 3d 47 2f 52 3d
       -0.0238334 0.062170118 0.106691204 0.05131462
000350 cc ef 1b 3e b2 d3 70 bd fd 7e 31 3d 9b ed 09 3e
       0.15228194 -0.05879564 0.043333996 0.13469546
000360 ed 9e 26 bc ef ea 14 3d e3 68 02 bd e6 97 e4 bc
       -0.010169727 0.036356863 -0.03183831 -0.027904462
000370 6c 4f 47 3e f2 82 45 3e 09 43 7a bc e2 91 35 3d
       0.19463891 0.19288233 -0.0152747715 0.044328578
000380 98 a9 18 3e 2c 47 40 3c 8d 9e 12 bd ab 3b ca 3d
       0.14908445 0.011735719 -0.035795737 0.09874662
000390 5c 50 18 3e 74 b5 cd bb c9 72 d5 bc 04 11 0e 3d
       0.14874405 -0.0062777344 -0.02605571 0.034684196
0003a0 3b 58 ea bb 18 f7 05 3e 35 ff 9f 3c c4 b3 e8 3d
       -0.007151631 0.1308254 0.019530872 0.113624126
0003b0 02 69 4a 3e 36 53 30 bd 85 fd 17 bd 40 aa 93 bc
       0.1976662 -0.043048106 -0.03710701 -0.018025517
0003c0 57 57 52 bd f8 37 6a 3d ea e9 f5 bc ce 48 f9 3d
       -0.051352825 0.057182282 -0.030018765 0.121720895
0003d0 0e 8f 79 bd 33 5d 02 3e 1b c2 d8 3d 00 01 25 3d
       -0.060927443 0.12730865 0.10583898 0.040284157
0003e0 1b 85 f8 3d 78 77 81 bc 73 40 f4 3d 7f 23 1e 3d
       0.12134763 -0.015804037 0.11926355 0.03860807
0003f0 f8 22 ad 3d f2 ac b8 3d f6 42 22 3b b5 e7 c5 3d
       0.084539354 0.09017362 0.002475915 0.09663335
